58168-Lu-Mie-Ma/clase-ocho-https/chromedata/Default/optimization_guide_prediction_model_downloads/584b9205-19fd-4ef9-96cc-135fbffe9bcf/model.tflite (tflite, 410364 bytes, 166 tensors)

context_transformer_0/bottleneck_input/norm/add f4 [32]
00000000: 8c36 163c 7ded 10be 30c8 72bc c84b 93bc
00000010: 8254 8b3e 526b 963e 9a82 7ebc fc36 ed3c
00000020: 9f0e f83d aeb0 43bd 18bb c6bd c8d3 023d
00000030: 9ed9 143d 3ea2 aa3c a097 fa3c 40a8 0e3e
00000040: 12be c73d a81f e23c df12 9d3d 2aa5 d63d
00000050: 2aa6 b83c 78d1 7cbb 1c96 c43c 6577 233d
00000060: 5a7f ab3d 840c 43bd 171c 82bd c00c 903d
00000070: 7090 fbba 73c9 963c 88fd 863c 71ea c4bd
0.009168278 -0.14153095 -0.014818236 -0.017980471 0.27212912 0.29378754 -0.0155340675 0.028956883
0.12112164 -0.047775917 -0.09703654 0.03194025 0.03634035 0.020829316 0.030589879 0.1393137
0.0975305 0.027602986 0.07669615 0.10480721 0.02254017 -0.0038577002 0.023997359 0.039908785
0.083739 -0.047619358 -0.06353014 0.07033682 -0.0019192826 0.018406605 0.016478315 -0.09615029

context_transformer_1/bottleneck_input/norm/add f4 [32]
00000000: 8b2e e7bd 7030 cd3d b0c4 c23d 38e9 133e
00000010: b9cc 9d3d ea42 063c 8042 5d3c 9fd1 aebc
00000020: fe90 17bd 341d 44be 3f44 7a3e a748 e2bc
00000030: 7e86 a9bd abe2 823e 94b7 04be f286 0cbe
00000040: 0b8b 28be 8094 cb3c 9050 b0bd 56a0 cebc
00000050: 5f2d f13d 626b 4dbc e0c0 8ebb 38e7 5dbe
00000060: 206a dbbd f4b3 c9bb e7af 85bd 9cd5 f7bb
00000070: bff6 8bbc bb21 b53d 9dc6 71be f03b 3abd
-0.11288174 0.10019004 0.095101714 0.14444435 0.077050634 0.0081946645 0.013504624 -0.02134019
-0.03700351 -0.19151765 0.24440096 -0.027622534 -0.082776055 0.2556356 -0.12960654 -0.13723353
-0.1645929 0.024851084 -0.08609116 -0.025222939 0.11776232 -0.012537809 -0.0043564886 -0.21670234
-0.10713601 -0.0061554853 -0.06527691 -0.007563306 -0.017085431 0.08844324 -0.23610921 -0.045467317

mention_transformer_0/bottleneck_input/norm/add f4 [32]
00000000: 43fc 3f3b 1397 f0bc 98ec 073e d016 83bd
00000010: ee63 273e 97cf c7bd 175a d7bd 5bea 75bd
00000020: c039 c3bd 32cb 4ebe 68ff 663d 648b 13be
00000030: ddd7 e63d 1187 6cbc 7a7d ef3c 4cee 943c
00000040: 7ebe 913d 2033 cfbc 8cdd 693c 7b34 4c3d
00000050: 62a9 1a3e 98e7 133e b112 7dbd 1b29 033e
00000060: 8e45 973d f092 6dbc 67c4 e33c a0ab 4dbb
00000070: 0390 4dbc 7bf1 1abc 2a00 3a3d 260d 073d
0.0029294647 -0.029368913 0.13273847 -0.064008355 0.16346714 -0.097563915 -0.1051523 -0.060037952
-0.09532499 -0.201947 0.056395918 -0.14408642 0.112716414 -0.014436499 0.029234637 0.018180035
0.071164116 -0.025292933 0.014274012 0.049854737 0.15103677 0.14443815 -0.061785404 0.12808649
0.073863134 -0.014500365 0.027803613 -0.0031382814 -0.012546542 -0.0094569875 0.045410313 0.032971524

mention_transformer_1/bottleneck_input/norm/add f4 [32]
00000000: aac1 f7bd cdeb afbe 9437 a4bd cca8 07bf
00000010: c244 afbe 099c 243c 116a cb3d ac81 5d3e
00000020: 3a97 90be bb53 81be 1f86 bb3d 747c e9bd
00000030: 80c9 af3e 2b98 33bd 3cf2 f8be 54c6 36bd
00000040: 3c78 c2bd 5a6c 363e 5aef 8a3d 1099 a0bd
00000050: e3c2 ed3d a660 57be ce0d ca3d 5404 783e
00000060: f51f 84bd 4c98 cd3d 29b8 72be 8678 66be
00000070: fca1 00be 2e9e ab3d b5c2 8fbe bc80 28bd
-0.12097485 -0.3435959 -0.08018413 -0.5299194 -0.34232146 0.010046967 0.0993234 0.21631497
-0.28240377 -0.25259194 0.09156441 -0.11400691 0.3433342 -0.04384629 -0.4862231 -0.044622734
-0.09495589 0.1781477 0.06783934 -0.07841694 0.11609437 -0.21032962 0.09865914 0.24220401
-0.06451408 0.10038814 -0.23703064 -0.22506914 -0.12561792 0.0837978 -0.28078237 -0.041138396

context_transformer_0/attention/value/add;context_transformer_0/attention/value/einsum/Einsum;context_transformer_0/attention/value/add/ReadVariableOp/resource f4 [32]
00000000: df1c 173d 5e4f 973d 950b a33d 8b87 c5bc
00000010: 02db f53c c274 693d 9379 013d 2cfd a0bd
00000020: a50e d43b ca29 443d 167b d43c 7196 a63b
00000030: 960c 053d e16a 9f3d f562 0a3d 057a 0e3d
00000040: addb 1a3d fc83 c63c db5a 89bd 584d cfbb
00000050: 795e 48bd 1179 86bd 8ec1 863d 1f2b 173d
00000060: 37ed 693d cb9e 99bd 1aad 2f3c 82d6 86bd
00000070: 5340 a73d 044c 6cbd 5fa7 b83d 5f4c b8bd
0.036892768 0.07388185 0.079611935 -0.024112483 0.030011658 0.056996115 0.031610083 -0.07860789
0.0064714723 0.047891416 0.025937598 0.005083852 0.032482706 0.077840574 0.03378578 0.034784336
0.037807155 0.024232857 -0.067067824 -0.0063263588 -0.04891822 -0.0656606 0.065798864 0.036906358
0.05711099 -0.075009905 0.010722423 -0.06583883 0.08166566 -0.05768968 0.090162985 -0.08998942

context_transformer_0/bottleneck_input/norm/mul f4 [32, 32]
00000000: 4347 073e 66b2 bfbc d981 2d3e d7b2 a1be
00000010: 4231 b0bd cec6 9b3e c191 733e 3d6f 93be
00000020: 6ce3 9dbe db2d fd3d e4da e53e 3cc5 683d
00000030: ba76 0bbf 26d6 c4bc 776b 113e 8458 d3be
00000040: 2cca b53e bc5c 88bc 848b 1d3c 9a6f 163d
00000050: 013f 16be a593 893a 8377 9c3d dd43 7c3d
00000060: c438 593e 12c4 cb3d 2791 67be 8e19 d9be
00000070: 0737 d13c 59e0 bbbe 9b39 6d3e 4483 07be
00000080: ab5f 0e3e c34b abbd 7462 7bbb 7acd bd3e
00000090: 7fcc 203e 2d7c 253e 189f 6d3e e1ed 34bf
000000a0: 965d 5ebd 4304 b9bd f031 403f d84e 5dbe
000000b0: 1c3d 4bbe 540a 63be 4e86 84be 8d35 46be
000000c0: 3e58 3c3d 35c0 b0be 5e92 9cbe d06d 1b3d
000000d0: 1eda b03d 2cde 773d a068 29bd 417c 023f
000000e0: 976a b1bd bd41 2ebe bca9 8abd 9568 80be
000000f0: 7d03 a1bd 3575 013e 3a70 32be a04f dbbd
00000100: 54b9 82bd 9062 9dbb d7b3 a1bd 43e9 4b3e
00000110: 2706 7c3d 42a3 e7bb e948 a73e 313c 223e
00000120: ca8b daba b0c6 3abe f2a1 5dbe b5d8 35be
00000130: 24d3 47be c053 dc3b d7c4 d03c da2f ebbd
00000140: e4aa 7f3d cda6 babc 79d0 d73e e22f 9fbe
00000150: fffa eb3d 73f0 8fbd 1767 073e 0935 79bd
00000160: 92b6 303c 693b ad3b 579b cbbd 0e6b 81be
00000170: e2a1 ddbd 78ed 43bd 6c19 943d fdcb 5ebc
00000180: 291e 7ebd ce04 983e a21f 1ebe 30c6 ba3d
00000190: 590b 84be e4c3 24be 9a4e 203e 92a0 e23d
000001a0: db06 3abe 849b 853c 2ae3 943d b5a4 463e
000001b0: e011 b6bd 9378 493e 0e18 d23e 5b57 8dbd
000001c0: 7924 9fbe f1c7 b23c e63e b5be ae56 fcbe
000001d0: 8c16 6c3e 6db3 ecbe f7b1 0abd c101 81be
000001e0: 7374 693d 293d edbc b3f9 43be 5751 023e
000001f0: a0b7 77be d299 0cbe d007 d23a 7eb1 e83d
00000200: a9df 993d bf35 bebd 593c 7c3c 998c e43d
00000210: 8718 ffbd c3c1 60be 8897 ebbc a1aa 473d
00000220: 7077 0bbd 6651 c4bc ca4e 8e3e b165 cabb
00000230: 44f9 c1bd e175 143d 4e57 fb3d 31af 5d3e
00000240: 90b6 ec3d 5a90 fa3d 298a dc3b 9c15 13be
00000250: bebc d6bc e707 a5bd b1e8 9e3d f74c 93be
00000260: 20dc b83b c29f bcbd ff1a 153e b721 da3d
00000270: 10e4 42be ab7b f63d ea4c f53c 3a8f d83e
00000280: 35b6 babd 1381 bf3e 75c3 783d fee2 083f
00000290: 358a b4bd a42e 42be e28a 91be b7ba c7bd
000002a0: df7e ae3e 95aa 373d 0445 b33d 6c0b b73c
000002b0: 4761 bcbe d61b f3bd 0dc8 543e 54e8 c73e
000002c0: 24aa 1a3b 0d22 153e 7fd8 7dbe 7dfc 2bbe
000002d0: 00a6 08be 4ecd a43d 70e1 3a3e 4e35 bfbe
000002e0: a3c7 babd 15d2 f1bd 4fe1 1dbe 2d25 4c3e
000002f0: d950 43be dd98 7c3c b2f9 20be 434d 313e
00000300: 32b9 cfbd 9122 673d cf6a be3e 276c c5bb
00000310: 6969 bcbd 89bd 283d c8dc 17be 9696 f3be
00000320: dce7 25bc e840 803e 28d6 b73e 3ea4 b1be
00000330: 73bf 11be 727e 31bd 244e 373d 364c 973e
00000340: 949f 21bd 49be 9f3e a474 4abe 413b bc3e
00000350: 5002 82be de8d c2bc fc77 03be d2cd 853e
00000360: 7d5c 763e ff0c 383f 6ec7 a33e e298 a9be
00000370: b793 783d e097 c0bc a322 2e3e e8a9 fdbe
00000380: 7fd9 853e b68b 3bbe 6bc7 78bd ea28 543e
00000390: bc87 03bd 831c a2be fed2 37bb 24ef 62be
000003a0: cf8b 9bbe 8f5c e8bc 6dab 233d dd50 67bd
000003b0: a794 d1be d9f3 8bbe 95b0 64bd 9c81 febd
000003c0: bf43 e4bc 4f17 85be 72ae aabc 57bb 57be
000003d0: a818 db3e 8c68 ffbd 73fd 52bd e622 153e
000003e0: 242d babe bb51 203e dd5f 6dbe 43c8 833e
000003f0: 1ad9 4f3e 87a5 403e 6d33 fcbe 5787 913c
0.13210778 -0.023400497 0.16944064 -0.31581756 -0.08603145 0.30425113 0.2378607 -0.28795806
-0.30837572 0.12362262 0.44893563 0.056828722 -0.5447804 -0.024027895 0.14201151 -0.4127847
0.35505807 -0.016645782 0.009615783 0.036727525 -0.14672472 0.0010496272 0.076399826 0.061588157
0.2121306 0.09949507 -0.22613965 -0.4240231 0.025538934 -0.366946 0.23166506 -0.13233668
0.13903682 -0.0836406 -0.0038358243 0.3707083 0.15703009 0.1616065 0.2320522 -0.70675474
-0.05428847 -0.09034016 0.750762 -0.21612108 -0.1984753 -0.22171909 -0.25883716 -0.19356366
0.04598259 -0.34521642 -0.3058042 0.037946522 0.086353526 0.060514614 -0.041359544 0.50970846
-0.086629085 -0.17017265 -0.067706555 -0.2507979 -0.078619935 0.12642367 -0.17425624 -0.10708547
-0.06383005 -0.0048030093 -0.0789563 0.19913201 0.061529305 -0.0070690224 0.32672814 0.15843274
-0.001667374 -0.18239856 -0.21643808 -0.17758448 -0.19514138 0.006723851 0.025484486 -0.11483736
0.062418833 -0.022784615 0.4215124 -0.3109122 0.11522483 -0.07028284 0.1322292 -0.060841594
0.010785716 0.0052866233 -0.09941738 -0.2527699 -0.10821892 -0.04783389 0.07231411 -0.013598439
-0.06204048 0.29691166 -0.15441754 0.091198325 -0.25789908 -0.16090351 0.15654984 0.110657826
-0.18166678 0.016309507 0.072698906 0.19398768 -0.08890128 0.19674902 0.41033977 -0.06901427
-0.31082514 0.021823855 -0.3539955 -0.4928488 0.23055476 -0.4623064 -0.033861127 -0.2519665
0.05699582 -0.028959827 -0.19138221 0.12726341 -0.24191141 -0.13730553 0.0016024057 0.11361979
0.07513363 -0.09287595 0.015395247 0.111596294 -0.1245585 -0.21948914 -0.02875878 0.04874671
-0.03404945 -0.023964595 0.27794486 -0.0061766733 -0.09471372 0.03624523 0.122725114 0.21648861
0.115582585 0.12234564 0.006730337 -0.14363712 -0.026213046 -0.08058148 0.07759226 -0.28769657
0.0056414753 -0.09210159 0.1456108 0.10650962 -0.19032311 0.120353065 0.029943902 0.42296773
-0.091167845 0.37403163 0.060733277 0.5347136 -0.088154234 -0.18963104 -0.28426272 -0.0975241
0.3408117 0.044840414 0.08753398 0.022344314 -0.36792967 -0.11870544 0.20779438 0.3904444
0.0023599947 0.1456377 -0.24789618 -0.16795535 -0.13344574 0.08046971 0.1825006 -0.37345356
-0.09120109 -0.11807648 -0.1541798 0.19936056 -0.1907381 0.015417305 -0.15720251 0.1731463
-0.10142745 0.05642945 0.37190863 -0.0060248557 -0.09199793 0.04119638 -0.14830315 -0.47575825
-0.01012608 0.2504952 0.35905576 -0.3469562 -0.14233188 -0.04333348 0.044752255 0.29550332
-0.039458826 0.31199864 -0.19771057 0.36763957 -0.2539239 -0.023749288 -0.12838739 0.2613359
0.24058719 0.7189483 0.3198809 -0.33124453 0.060687747 -0.02350992 0.170054 -0.4954369
0.261425 -0.18315014 -0.060737055 0.20718732 -0.03211187 -0.31662378 -0.0028049345 -0.22161537
-0.30380103 -0.028364448 0.039958406 -0.0564736 -0.40933725 -0.27334478 -0.055832464 -0.12427065
-0.027864335 -0.25994346 -0.020835135 -0.21067558 0.4279225 -0.124711126 -0.05151124 0.14564094
-0.36362565 0.15656178 -0.231811 0.25738725 0.20297661 0.18813144 -0.49257985 0.01776473

context_transformer_0/kq_shared_bottleneck/norm/mul;context_transformer_0/kq_shared_bottleneck/norm/add;context_transformer_0/attention/key/einsum/Einsum;context_transformer_0/attention/key/add;context_transformer_0/attention/value/einsum/Einsum;context_transformer_0/attention/key/add/ReadVariableOp/resource f4 [32]
00000000: 2fb2 5d3d da7d 89bd c8e4 8cbd db99 863d
00000010: 3603 78bd 6eb0 1a3e 8f25 b73d ce2d 663d
00000020: 385d 20be 7088 6dbd b48a 323e 1211 d1bd
00000030: cb73 453d bb80 09be c0d8 063e e7ea 273e
00000040: 3058 0a3d 347a 8a3d 8d2f 3ebd 569c c43c
00000050: 7b26 283e 7299 183e 86aa 86bd 1d9f df3c
00000060: 1b5e cebd fda7 32be 81f2 9f3d f75b 9abd
00000070: c35b 35be 9859 d63d 3d77 32bd 37bd 0fbe
0.054125007 -0.067134574 -0.06879574 0.06572314 -0.060549937 0.15106365 0.089427106 0.056196027
-0.1566056 -0.057991445 0.17435724 -0.10208334 0.048206132 -0.13428013 0.13168621 0.16398202
0.03377551 0.0676159 -0.046432067 0.024000328 0.16420929 0.14902285 -0.065754935 0.02729755
-0.10076543 -0.17446895 0.07809926 -0.07537072 -0.17710786 0.104663074 -0.043570746 -0.14037023

context_transformer_0/kq_shared_bottleneck/norm/mul;context_transformer_0/kq_shared_bottleneck/norm/add;context_transformer_0/attention/key/einsum/Einsum;context_transformer_0/attention/key/add;context_transformer_0/attention/value/einsum/Einsum;context_transformer_0/attention/key/add/ReadVariableOp/resource1 f4 [32, 32]
00000000: d7d6 a5bd 67dd a83b 358c c2be b2fd 6bba
00000010: 0574 dcbd a554 d9be 2aa1 f53d 7ce2 83be
00000020: cac0 aabd eba1 6cbe 4899 85bd 6acc 143f
00000030: ff1f 4d3e 9158 8c3c 69f3 f63d 3c79 313e
00000040: f4ad b23d 0782 293e f727 a1be db61 d43d
00000050: 9d6e 71be 7b01 c5bd 522a b83d 9b86 8bbe
00000060: 3f7f aabd 9fa7 24bd 848b 2abe 1f5a 5bb9
00000070: d0d3 303d 1a6c deba 68ce 50be fb95 e33b
00000080: 9ee7 6fbc 6679 87bc 91bc 373e 65db 263d
00000090: d4e2 9d3d 0c2a 7c3e 6794 97bc 8395 d53d
000000a0: 44fa ccbc c3ba cf3d 33c2 013e 67f7 21be
000000b0: 8c7a 5bbc 34dc c53c c72d 07be 88dd 28be
000000c0: 6f74 ffbd f492 a1bd 9ab5 573e 997b 543d
000000d0: 6ebc ea3d d72c c73c 3e00 efbb e357 3c3e
000000e0: 2938 903d 120e d1bd e5d9 f63d e4b1 fa3c
000000f0: 589f ae3c 052d bd3d 3578 373e de78 d7bd
00000100: 4995 8bbd d962 2dbc 983b 433e 4991 953c
00000110: 2e1d 723d 2a59 4a3e 6e19 783d d8da 993d
00000120: 790d 39ba b33e 953d 3eac 023e b40a acbd
00000130: 978c 1c3d 5342 233d 58e9 28be 5884 42be
00000140: 332a 0abe cb58 96bc 5180 433e 580f 343d
00000150: 297e d03d 5d17 e03b dc86 613a 45c1 123e
00000160: 1e24 613d c26d a7bd 9c43 f83d 46ff 233d
00000170: 4636 f33c 13c4 a23d 4f01 573e 46f0 f4bd
00000180: 5c46 ea3d a5a0 693c 64b0 e7bd f5b3 62bd
00000190: 4b4c 4ebd b874 00be 8fb5 dcbd e02f 8cbd
000001a0: f44b 443d 12d1 debb 59d1 e1bd 80d8 35bd
000001b0: 340c 82bd 62a5 46bd 98c7 133e 40df 443e
000001c0: 4d5b e03d 1763 333b 2949 0cbe c35d aebd
000001d0: 2fe7 06bb 4d54 833a 69ae afbc eaf2 08be
000001e0: c139 033b a3ae d23d 2387 b1bd b44e 15bd
000001f0: 5fc6 32bd 057f 02be eee9 39be ffd1 1f3e
00000200: 4e04 d23b 74b2 cfbb 629b 6e3e 9895 943c
00000210: 5d6f ae3d 77d3 953e e94b 5dbc affe 123e
00000220: 6f3b 7aba 0d16 003e ca6c e93d ff2b 7fbe
00000230: f5f0 aebd 58ae ccbc ec37 04be d7d5 fcbd
00000240: 664f ebbd c44d b9bd bef9 5d3e 95b4 283c
00000250: fdc1 343e ef3c 4e3d 1e43 9ebc 2229 433e
00000260: fdc9 b03d 5462 8bbd fe6d 023e 16cd cd3b
00000270: 5470 703c 23df 863c 890c 3d3e 2539 afbd
00000280: 08a5 2a3e a820 0a3d 6026 36be 6846 0ebe
00000290: ed90 bcbd 8cc8 43be 4c62 ffbd 3c15 823d
000002a0: 815b 8c3d 452b 03be 905a 1ebe 2262 3cbd
000002b0: 2a7b 09be bed7 59b9 234e 683e a850 013e
000002c0: d48b 2c3e afc7 8d3d 9e5b 58bc e2a6 22be
000002d0: 27ea a03c 5663 60bb 0ed3 88bc 7dca a7bd
000002e0: e0ac 2bbd 9d7d 633e fcf4 07be 3ad1 1f3d
000002f0: 8476 27bd 3215 2cbe ae89 e6bd 44c3 2b3e
00000300: 1f4f 203e b146 673d 3db3 9d3d ce2e 1e3d
00000310: 6ff5 84bd 83a4 d63d 9aee ebbd 4998 243e
00000320: 345d a03d 8c3d 4dbd 7e7e de3b d4f4 04bd
00000330: 18f0 a9bd e590 34bd 368f 103c 162b 09be
00000340: 9e83 2ebd 6d08 d4bd e320 783e 89dd 823b
00000350: 046a 413e f7c8 a43d 9864 ccbd d86f 113e
00000360: 1795 aa3c e357 d83c 9d2d 393e 29a3 f5bc
00000370: 7b93 01bd d7b1 bcbc ee66 c53d 9df5 44bc
00000380: 377c b53d 3523 ad3c 1de5 15be 2378 06bd
00000390: 9226 a9bd a826 3dbe 5a1a 4dbd 6081 c9bd
000003a0: fb2f e63c 1228 0cbd 52c4 e9bd 3bfd 843d
000003b0: 80f0 5fbc 2f55 723b 952c 243e 937f 1c3e
000003c0: da5a ba3d 530f 593d 9c02 38be 5cc4 8bbd
000003d0: f6d7 c0bd f978 c2bc f57d e43a 8da6 29be
000003e0: 1839 c8bc d047 bf3d af6b 05be bbc9 a9bc
000003f0: 4ed6 41bd 60a7 dbbd 215d 4cbe 5267 ef3d
-0.08097618 0.0051533463 -0.37997594 -0.0009002342 -0.107643165 -0.4244739 0.1199363 -0.2575873
-0.08337553 -0.23108642 -0.06523377 0.5812441 0.20031737 0.017132076 0.120581456 0.17331403
0.08724585 0.16553508 -0.31475803 0.10370227 -0.23577352 -0.09619423 0.08992447 -0.27251133
-0.083250515 -0.04019892 -0.16654783 -0.0002091904 0.04317075 -0.0016969473 -0.20391238 0.0069453693
-0.014642624 -0.01653738 0.17943026 0.040736575 0.0770928 0.24625415 -0.018503381 0.10428908
-0.02502168 0.10143044 0.12671737 -0.15817033 -0.013395917 0.024152853 -0.13201056 -0.16490757
-0.1247338 -0.07889357 0.21065369 0.051875684 0.11461721 0.024313373 -0.00729373 0.18392901
0.07041962 -0.10207762 0.12053279 0.030602403 0.021316215 0.092371024 0.17916949 -0.105211005
-0.06815583 -0.010582649 0.19065702 0.018257754 0.05910986 0.19760576 0.060571127 0.07512444
-0.00070591975 0.072873496 0.12761018 -0.08400479 0.038220014 0.039858174 -0.16495264 -0.18995798
-0.1349266 -0.018352887 0.19091918 0.043959945 0.10180313 0.0068387226 0.00086031645 0.14331539
0.054966085 -0.081752315 0.121222705 0.04003837 0.029688966 0.079475544 0.20996593 -0.11959891
0.11439201 0.014259492 -0.11312941 -0.0553474 -0.050365727 -0.12544525 -0.10776817 -0.06845069
0.047923997 -0.0067998255 -0.11026258 -0.044395924 -0.06349984 -0.048497565 0.14431608 0.19225788
0.10954914 0.0027372295 -0.13699783 -0.085139774 -0.0020584574 0.001001963 -0.02144547 -0.13373914
0.0020023438 0.102872156 -0.086683534 -0.03645201 -0.043646213 -0.12743767 -0.18155643 0.15607451
0.0064092046 -0.006338412 0.23301461 0.018137738 0.085173346 0.29262897 -0.013506868 0.14354967
-0.00095455995 0.12508412 0.11397703 -0.24919127 -0.08542053 -0.024985477 -0.12911958 -0.12345474
-0.114897534 -0.09048036 0.216773 0.01029696 0.17652126 0.05035108 -0.019319113 0.1905866
0.08632276 -0.06805864 0.12737271 0.0062805517 0.014675219 0.016463822 0.18461813 -0.08555821
0.16664517 0.03372255 -0.17788076 -0.13894045 -0.0920733 -0.19119471 -0.124699205 0.063517064
0.068533905 -0.12809475 -0.15464234 -0.045992024 -0.1342589 -0.00020775103 0.22686057 0.12628424
0.16850215 0.06922852 -0.013205437 -0.15883973 0.019642903 -0.0034238896 -0.016702201 -0.081929184
-0.041912913 0.22215886 -0.13277048 0.039017893 -0.04088451 -0.1680496 -0.11256729 0.16773707
0.15655182 0.0564639 0.077002026 0.038618855 -0.06492125 0.10480597 -0.11520119 0.16073717
0.07830277 -0.050107524 0.0067899814 -0.03246005 -0.082977474 -0.044083495 0.008823207 -0.13395342
-0.04260599 -0.103531696 0.24231295 0.003993694 0.18888098 0.080461435 -0.09980124 0.14202821
0.020823045 0.026409095 0.18083806 -0.029985027 -0.03163479 -0.02303402 0.09638773 -0.012021449
0.08861583 0.021134952 -0.14638181 -0.032829415 -0.0825931 -0.18471777 -0.05007396 -0.098391294
0.02809905 -0.0342179 -0.11414398 0.064936124 -0.0136681795 0.0036977043 0.16032632 0.1528304
0.0909936 0.05299313 -0.17969745 -0.06824562 -0.09416191 -0.023739325 0.0017432558 -0.1656744
-0.024441287 0.09339869 -0.1302936 -0.020726075 -0.047323518 -0.107252836 -0.19957401 0.11689629

context_transformer_0/kq_shared_bottleneck/norm/mul;context_transformer_0/kq_shared_bottleneck/norm/add;context_transformer_0/attention/query/einsum/Einsum;context_transformer_0/attention/query/add;context_transformer_0/attention/value/einsum/Einsum;context_transformer_0/attention/query/add/ReadVariableOp/resource;context_transformer_0/attention/Mul;context_transformer_0/attention/Mul/y f4 [32]
00000000: 76e4 08bd 6fae 29bd 490f 6cbd 701c 9e3d
00000010: a99b 96bc 002e bf3d c682 1d3d c6f2 693d
00000020: e627 1dbe 0621 f3bd 9520 123e 829a 05be
00000030: 7b7a c73d 09c4 07be ccb5 163e 9414 1c3e
00000040: 23e4 1abe a074 113e 51b6 133e 4e82 0abe
00000050: f7ba 3b3e bb71 02be f76e 103e 3e28 0cbe
00000060: d629 0cbd b469 3e3d 2ba7 963d f9d9 84bd
00000070: b528 33bc 57b5 b13c 992e a4bb 0927 16bc
-0.033421002 -0.04142612 -0.057631765 0.07720268 -0.018384771 0.09334946 0.038454793 0.057116292
-0.15347251 -0.11871533 0.14270242 -0.13047221 0.09740158 -0.13258375 0.14717788 0.15242225
-0.1512609 0.14204645 0.14425017 -0.1352627 0.1833304 -0.12738697 0.1410483 -0.13687226
-0.034219585 0.046487525 0.073561035 -0.064868875 -0.010934998 0.021692915 -0.0050104377 -0.00916458

context_transformer_0/kq_shared_bottleneck/norm/mul;context_transformer_0/kq_shared_bottleneck/norm/add;context_transformer_0/attention/query/einsum/Einsum;context_transformer_0/attention/query/add;context_transformer_0/attention/value/einsum/Einsum;context_transformer_0/attention/query/add/ReadVariableOp/resource;context_transformer_0/attention/Mul;context_transformer_0/attention/Mul/y1 f4 [32, 32]
00000000: 4fc7 1fbe b1f0 e8bb b1d8 5e3d fec4 703d
00000010: c341 f13b 141d aa3c 4b94 273e 14c0 a5bd
00000020: e0d5 dcbc de2a 22bd 712d 8d3c 93c5 373d
00000030: e14c f33d 9f29 613c 8254 5cbd 2df3 c93c
00000040: acef 90bd c3ac da3b a49b a0bd 5610 c73d
00000050: 1dd6 15bd 1095 10bc 194e 873c 8703 5cbd
00000060: 89cc a7bc 5e57 e3bd c874 623d 8911 0dbd
00000070: 2722 3abc 288e 5e3d c833 98bc 1548 9abd
00000080: 7991 c63c 55b5 a83b f531 ccbc 29f8 d1bc
00000090: 5392 0b3c 3f46 41bb 63be 87bd b1c9 313d
000000a0: 33dd 9abb 6bfc bd3c 9dba b83c 5191 3dbd
000000b0: 1f47 05bd f937 d63b 8740 333a fceb 61bc
000000c0: ea84 e73c beab 80bb a191 343d 8b85 38bd
000000d0: 405e 323c 670e 9bba 6c93 e3bb 93ab 0b3d
000000e0: 9955 653c a33c 103d 0279 77bb f4eb d43b
000000f0: 2977 23bc 0879 b33a 6bd4 823c 62d1 d6b9
00000100: 9201 883c d3ef f23b 39d3 57bc 1e95 26bc
00000110: b9a4 bb3a b482 8b3b fcd5 7dbd 85e4 0a3d
00000120: 3bb4 a63b 717f e03c b6ac 003d 27dd 04bd
00000130: 1eab 8fbc 7007 6e3c 7ad4 5e3a 61f1 1bbc
00000140: 98a1 a63c 2116 e5bb 939d 2e3d 4294 12bd
00000150: 07c1 6e3c 567d 203c b937 f1bb dee0 b73c
00000160: eeac 0a3c a837 873c 83b1 8b3b 43ca c0bb
00000170: 7576 76bc 0cc6 ae3c 2960 223c 357a 04bc
00000180: 912c 233c 4444 37ba 1d61 6ebc d7e0 2bbb
00000190: e9c3 8bbb f60a 74bc e701 eb3c 4af6 7dbc
000001a0: b9fa 773c 1e03 36bd 60c8 16bd 297b 323d
000001b0: 4810 e6bb 10df 91bc 86a6 123d 8c57 bf3b
000001c0: 3bc2 1dbc 1c92 3e3c 1af1 c7bc 6e37 dd3c
000001d0: 3054 9d3b 5e83 2cbc ee8b 4d3c f515 c2bc
000001e0: 1382 92ba d2aa 623c c7f9 21bc 3012 983b
000001f0: 7ab9 9e3b 8697 04bc ab13 d7bb c39e a73c
00000200: f7b6 8b3d 3bde 373c 666d d8bc fe7b 94bc
00000210: 90f8 6738 e1b5 3dbc 3a54 c2bd 548f 6c3d
00000220: cd27 043c 3faf e93c e571 aeba 3b65 43bd
00000230: 9599 39bd b106 3f3b 7075 a63b 9cc8 2dbc
00000240: c274 223d 65d2 c33a 185d 5e3d a28f 56bd
00000250: e374 753c d468 b9bb ab5b 0abc fc80 063d
00000260: 0ad1 0f3c 6607 4d3d 7875 763a 86f9 fc3b
00000270: d5e3 c73b 343d 77bc 3568 a13c fe72 a13c
00000280: 176a 753c d050 ee3c c174 0dbb ce56 44bc
00000290: 381a 72bc 4d36 83bc 9c90 263d 6c3d cabb
000002a0: d86d 243d 8321 14bd 0e24 46bd 0c70 b83c
000002b0: e7a5 d6bc 4c19 73ba 29b1 863c 22f4 773b
000002c0: 7540 f83c 863e cebc 6f8e 1cbc b655 81bd
000002d0: ea74 343d 7ed1 993c 44a5 13bd a192 00bc
000002e0: 86df fdbc b43a b93c 8ba6 123c 594f c5bb
000002f0: 376a 42bd 2db2 06bd 8150 bbbb ea3d cb3c
00000300: f85f 643d bf0c b63c 59cd 5bbc 355f 3dbc
00000310: 34a7 66bc edee 9d3c 6de5 2ebd 1378 353d
00000320: e628 1e3d 14ad d73c f6da 1fbd 8de4 5cbd
00000330: 873b 99bd 102d a5bc 9985 3b3c 16ea a1bb
00000340: 89a7 1a3d 7ecf e5bc 5d5a 2c3d 1c31 a7bd
00000350: 9703 233d ffbc d13c e411 38bd 08ce 173d
00000360: 50bd 89bc 0816 623d 115d 833c 8707 f13b
00000370: e382 2fbd ebc4 59bd 66f7 263a 8946 733d
00000380: 8db2 adbc d3e2 033b 6f3b 933a 60dc 313b
00000390: e5ad 43bb 6308 42bc 91cc 493d ee3c 15bd
000003a0: 909f b23b 1609 32bd f7c2 c0bc fc78 333d
000003b0: 15b6 da3c 3c6c bbbc 834a 863b 9d9d 90ba
000003c0: 5b73 d0bc 1d09 2f3a 08d6 35bd a832 e33c
000003d0: 86f5 6bbc dc8c 44bb 206f a8bb 6250 fcbc
000003e0: 6964 23ba 11b0 60bc dab4 2fbc 6f03 4b3c
000003f0: 1b97 613c ac60 01ba f248 b8bb 23c2 903c
-0.15603374 -0.007108771 0.05440587 0.058781616 0.0073625757 0.020765819 0.16365163 -0.080932766
-0.026957452 -0.039591663 0.017233582 0.044866156 0.11879898 0.013742833 -0.05379153 0.024652088
-0.07076964 0.006673427 -0.07842186 0.09719913 -0.036581147 -0.008824602 0.016516732 -0.0537143
-0.020483272 -0.11100648 0.055287153 -0.03444055 -0.011360682 0.05433479 -0.018579379 -0.0753328
0.024239289 0.0051485696 -0.024926165 -0.025631027 0.008518773 -0.0029491333 -0.0662811 0.04340524
-0.004726076 0.023191651 0.022549922 -0.046281163 -0.03253853 0.006537434 0.00068379234 -0.013789173
0.02826162 -0.0039267233 0.044084195 -0.04504923 0.010886729 -0.0011829854 -0.0069450643 0.034099173
0.013997459 0.035214078 -0.0037761335 0.0064978544 -0.00997714 0.0013692686 0.01597043 -0.00040973263
0.016602311 0.007413843 -0.013172918 -0.010167388 0.0014316059 0.0042575244 -0.06197165 0.03390934
0.005087403 0.027404519 0.03141471 -0.03243747 -0.01753765 0.01452814 0.00085002894 -0.009517998
0.020340726 -0.0069911634 0.042630743 -0.03578592 0.0145723885 0.009795507 -0.007361379 0.022446092
0.008464081 0.016506031 0.0042631044 -0.0058834865 -0.015042891 0.02133467 0.009910622 -0.008085777
0.009959356 -0.00069910684 -0.014549521 -0.0026226544 -0.0042652977 -0.014895191 0.02868743 -0.015500614
0.0151354605 -0.044436567 -0.036812186 0.043574486 -0.007020984 -0.01780656 0.03580334 0.005839294
-0.009628828 0.011631515 -0.024406958 0.02700397 0.0048012957 -0.010529367 0.012545569 -0.02369211
-0.0011177681 0.013834672 -0.009886212 0.00464084 0.004843888 -0.008092767 -0.006563624 0.020461446
0.06822007 0.0112224175 -0.026419353 -0.01812553 5.5306184e-05 -0.011579008 -0.09488721 0.057753876
0.00806613 0.028525947 -0.001330909 -0.047703963 -0.045312483 0.0029148275 0.0050799176 -0.010606911
0.03966213 0.0014940022 0.054288 -0.052383073 0.014981481 -0.0056582484 -0.008444707 0.032837853
0.008777866 0.050055884 0.00094016595 0.007720175 0.0061001577 -0.015090276 0.01970301 0.019708153
0.014978907 0.029091269 -0.0021584483 -0.0119835865 -0.014776759 -0.016017104 0.040665254 -0.006171873
0.040143818 -0.03616477 -0.04837423 0.022514366 -0.026202155 -0.0009273484 0.016441898 0.0037834723
0.030304173 -0.025176298 -0.009555443 -0.06315176 0.04405681 0.018776651 -0.03604628 -0.007847459
-0.030990373 0.022611 0.00895084 -0.006021422 -0.047464576 -0.032884765 -0.005716384 0.024809796
0.055755585 0.022222875 -0.013415658 -0.011558344 -0.01407795 0.019278968 -0.042699266 0.044303965
0.038613223 0.026327647 -0.039027177 -0.0539289 -0.07482057 -0.020163089 0.011445426 -0.0049412353
0.03775743 -0.028053042 0.042078365 -0.08163664 0.039798345 0.025602816 -0.044938937 0.03706172
-0.016813904 0.055196792 0.016035588 0.0073556337 -0.042849433 -0.05316631 0.00063692627 0.05939344
-0.021203304 0.0020124211 0.0011232923 0.002713941 -0.0029858288 -0.01184282 0.049267355 -0.03643506
0.0054511502 -0.043465696 -0.023530466 0.04381655 0.026698152 -0.022878759 0.004098238 -0.00110333
-0.02544563 0.0006677078 -0.04439357 0.027734116 -0.014401799 -0.0029991185 -0.0051402003 -0.030800048
-0.0006232919 -0.0137138525 -0.010724271 0.012390955 0.0137689365 -0.00049353647 -0.00562393 0.017670697

context_transformer_0/ffn_layer_0/intermediate_dense/einsum/Einsum;context_transformer_0/ffn_layer_0/intermediate_dense/Relu;context_transformer_0/ffn_layer_0/intermediate_dense/add f4 [32]
00000000: 2fdd bbbd 99d3 6cbe b518 86be d018 cebe
00000010: f69f 80be e3c4 75be 26b9 ebbd fa32 3cbe
00000020: bbcd 96be 2576 86be 1ca4 9fbe c784 89be
00000030: cbde 9dbe 277b 2cbe 9332 80be 8f6d eabe
00000040: 7e36 cabe 7209 02bf 0842 aabe 3e0d e9be
00000050: 6798 3ebe 48bc aebe a44c d2be 9a51 68be
00000060: f18c 0abe 7919 f5bd 9829 b6be a5c6 d5bd
00000070: 4f81 39be ba6f 00bf b471 e5be dfa5 84be
-0.09173047 -0.23127593 -0.26190725 -0.40253305 -0.2512204 -0.24000888 -0.11509924 -0.18378821
-0.29453835 -0.26262012 -0.31179893 -0.26859114 -0.3083404 -0.16843854 -0.25038585 -0.45786712
-0.394947 -0.5079566 -0.33253503 -0.45517915 -0.18612824 -0.34128022 -0.41074097 -0.22687379
-0.13530327 -0.11967749 -0.3557861 -0.10438279 -0.18115734 -0.5017048 -0.4481331 -0.259078

context_transformer_0/attention/norm/mul;context_transformer_0/attention/norm/add;context_transformer_0/ffn_layer_0/intermediate_dense/einsum/Einsum;context_transformer_0/ffn_layer_0/intermediate_dense/Relu;context_transformer_0/ffn_layer_0/intermediate_dense/add f4 [32, 32]
00000000: 2baa dd3c ea97 bbbb 9e8b fbba 0115 8e3c
00000010: 4abd 98bc b5f9 1abd 7e81 65bc 2667 f8bc
00000020: 6a60 473b 4029 de3b b291 86bc 8e9b 87bb
00000030: 1cb6 fdb9 d8f3 ae3c 27e1 803c db98 333c
00000040: ea55 2fbc 576c 813c 5916 5dbc 6909 933a
00000050: 27bd e4bb 6e12 1fbc b535 233a 8462 923c
00000060: 9eda 243c d548 80bb d53a 733b 9b4a 523c
00000070: dae8 9b3b 2bdf dfb8 041f 20ba feaf 4d3c
00000080: 3f04 22bd ab83 0c3e fdc6 d9bd e128 293e
00000090: c3e5 9bbd 6898 b0bd ecff 96bd 4626 743e
000000a0: 58c8 d0be f7bf 233e ca78 b2bd 5f16 603b
000000b0: b053 ebbc 9c89 343e fc45 30bf 80c7 753c
000000c0: 761d eebd 9dda b9bc 4a8a edbd 5730 21be
000000d0: 4a8f d2bd 020e c23d 525d 283f 6e7e 49be
000000e0: 9fc3 a8bd 5a1e 3bbe b985 9f3e cc92 3d3d
000000f0: 6cc7 df3d a8b8 1d3e d32d 1f3e da27 b83d
00000100: 4b4b 273e 5b45 a23e 6473 ccbc 9b40 8cbd
00000110: 7c10 d1be 3c54 91be ebcb 553e e23f 0cbd
00000120: 94b7 773b bcc6 d4bc bdc3 e03d a99c 4fbe
00000130: cfa4 143e 18ad 57be 77b1 7fbd d7d4 85be
00000140: 016d 62be b32c 69bd c0d3 9cbe 588b c2bc
00000150: 7a3f 43be 9683 893e e42f 41bd 0df5 78bd
00000160: 9414 22be c2bc 083e 1437 38bd 40f1 14bd
00000170: b1e6 81be 3963 1cbe 17a9 9abd d522 0abd
00000180: ce2f 6e3d c342 803e e758 1d3e b9bc eebd
00000190: c299 96be 0e8e d6be 452a 503e 41f1 003e
000001a0: be8e e6bd bc1b 7d3e aceb d03e d976 8ebd
000001b0: 0080 abbd 8e69 0dbe 853c 123e 269a 31be
000001c0: 7971 3cbe a2f1 bdbc aafd f53c f467 c43c
000001d0: 460d 8d3d 8138 23be 6df4 3bbe fdd1 783b
000001e0: 57a9 9abe 2711 473e aaf5 d8bd 63d9 b8be
000001f0: a750 4abe 2adb 5dbd c7b0 f3bd bf72 923c
00000200: 5bd0 b63c 1f31 bebd 0529 143e 683e fdbd
00000210: 6eec a0be f3cc 06bf a35e 943e 93f6 39bd
00000220: cf8f 53bd 3e18 43be 365a 053e 0eba 05be
00000230: f405 9d3e fddd 8ebe 136a 143d 3d94 b5be
00000240: 9b61 2fbe 36e1 10be c8cc d0bd 866f 833d
00000250: c097 04be 1181 3abe 7156 99be f960 1c3e
00000260: 95cc 5dbe edb1 243e 78ba ffbd 7117 66be
00000270: 6b5f a5be c981 e1be b4ba 9fbd ca42 30bc
00000280: 0b3b 8b3c c347 633e 42ed 3fbe 8bb6 7c3e
00000290: 9162 0dbe fe2b 69be 4afb 453d ffe7 0abe
000002a0: 57ea eebd cd90 363e 380e d73d da80 0f3e
000002b0: a875 d63d 961c 4fbe 98a7 4c3e 429c 90be
000002c0: 9932 62bc e999 f9bd 5f19 22bd a93b 81be
000002d0: b838 28bd 6f55 e13d a20f 3bbe 3a37 453e
000002e0: 9aa0 a4be e190 4ebd c038 ecbd ec20 393d
000002f0: c0f4 7dbe d87f 143e 205c 93be 8e59 00be
00000300: 0b68 923e 4c20 8bbc 5632 233e f5f2 19be
00000310: e0b8 b9bc 6ad3 a7be 4f19 613e 5cf8 fc3d
00000320: 0cfa 783d 438f 123f fd22 df3d f7a2 1f3e
00000330: a876 403e 255a 7c3d 4fd6 5cbd 0200 aabd
00000340: 660f b33d bab1 14bb 7367 f83d 8510 fd3b
00000350: 5149 863d 08d9 57be fe38 083f 9077 a53d
00000360: 6a52 663c d090 1e3a c7a8 29be fbc7 98be
00000370: 2810 b03d 1068 92be 8066 a23e 55d1 e9bd
00000380: 57bc 3f3e dd7a 89bc 3fd6 dd3d 227e f03e
00000390: db3b d5bc 1edf 993b 037b 21bc 64c4 5abe
000003a0: 71da b4be 32ac 043f dcf9 a23d 5132 6ebd
000003b0: 6b78 923c ac59 173c 2fc4 c1be 7d90 053e
000003c0: 28d9 d43c ffaf 40bd 3c2d e7bd 6075 ddbe
000003d0: d59e 353e ccee 7b3e d5ce 6e3e 5f18 4dbe
000003e0: 0163 943d a88e 0f3d fae4 123e 2060 73be
000003f0: b1c2 2d3e 333a 2f3d 3aab cfbd 657f ba3e
0.027058681 -0.0057248967 -0.001919139 0.017344 -0.018644948 -0.037835795 -0.014007924 -0.030322623
0.0030422457 0.0067798197 -0.016426895 -0.0041384166 -0.00048391602 0.021356508 0.015732361 0.010961737
-0.010701636 0.01579873 -0.013494098 0.0011218014 -0.0069805565 -0.009708984 0.00062259595 0.017869242
0.010061888 -0.0039149323 0.0037113924 0.01283517 0.0047579827 -0.00010675037 -0.00061081373 0.012554167
-0.03955483 0.13722102 -0.10633657 0.165195 -0.07612183 -0.08622819 -0.07373032 0.23842725
-0.4077785 0.15991198 -0.08714445 0.0034193022 -0.028726429 0.17630619 -0.6885679 0.015001178
-0.11626713 -0.02268725 -0.11598642 -0.15741096 -0.102812365 0.09475328 0.65767395 -0.19677135
-0.08240437 -0.18273297 0.3115671 0.046282575 0.109267086 0.15402472 0.15544824 0.08991976
0.16337316 0.3169354 -0.024957366 -0.0684826 -0.4083289 -0.28384578 0.2087857 -0.03424061
0.003779863 -0.02597367 0.10974834 -0.20274605 0.14515994 -0.21062124 -0.062425103 -0.26138946
-0.22111894 -0.056927394 -0.30630302 -0.023748085 -0.19067183 0.26858205 -0.047164813 -0.060780574
-0.15828162 0.13353255 -0.0449744 -0.036362886 -0.25371316 -0.15272225 -0.075517826 -0.033724625
0.05815106 0.25050935 0.15365945 -0.1165709 -0.29414183 -0.41905254 0.20328625 0.12592031
-0.11257695 0.24717611 0.40804803 -0.06956262 -0.083740234 -0.13809797 0.14280899 -0.17343959
-0.18402661 -0.023186509 0.030028183 0.02397535 0.06887297 -0.15939523 -0.1835496 0.003796696
-0.3020732 0.19440137 -0.10593732 -0.36103353 -0.19757329 -0.05416409 -0.11898952 0.01787698
0.022316149 -0.09286713 0.14468773 -0.12365419 -0.31430382 -0.5265648 0.28978452 -0.045401167
-0.05165082 -0.19052216 0.13022694 -0.13059255 0.30668604 -0.2790374 0.036233973 -0.3546466
-0.17127077 -0.14148411 -0.10195309 0.06417756 -0.12948513 -0.18213297 -0.29948762 0.15271367
-0.21660073 0.16083498 -0.12486738 -0.2246988 -0.3229936 -0.4404433 -0.07799283 -0.010758111
0.016995927 0.22195344 -0.1874285 0.2467901 -0.13807131 -0.22770688 0.04833535 -0.13565062
-0.116657905 0.17828675 0.10500759 0.14013997 0.1047166 -0.20225748 0.19985807 -0.28244215
-0.013806009 -0.12187559 -0.039574977 -0.2524083 -0.041069716 0.11002623 -0.18267682 0.19259349
-0.3215378 -0.050431136 -0.11534262 0.045197412 -0.24800396 0.14501894 -0.28781223 -0.12534162
0.28595003 -0.016983174 0.1593717 -0.15034087 -0.022671163 -0.32778484 0.2198231 0.12352058
0.06078534 0.5724985 0.10895345 0.1558951 0.18795264 0.061609406 -0.053915318 -0.08300783
0.087431714 -0.002268894 0.121291064 0.0077229165 0.06556953 -0.21078885 0.53211963 0.08079445
0.014057735 0.00060488004 -0.1656829 -0.29840073 0.085968316 -0.28595018 0.31718826 -0.1141688
0.1872419 -0.016782219 0.1083188 0.46971232 -0.026029518 0.004695787 -0.009855988 -0.2136398
-0.35322908 0.5182525 0.07957813 -0.058153454 0.017879685 0.009237688 -0.3784499 0.13043399
0.025982454 -0.047042843 -0.11287925 -0.43253613 0.17736371 0.24602813 0.23321088 -0.20028828
0.07245446 0.035048157 0.1434516 -0.23767138 0.169688 0.042780112 -0.10140081 0.3642532

context_transformer_0/ffn_layer_1/intermediate_dense/einsum/Einsum;context_transformer_0/ffn_layer_1/intermediate_dense/Relu;context_transformer_0/ffn_layer_1/intermediate_dense/add f4 [32]
00000000: e25b 0fbd 5175 87be c5f7 80be cd01 a1be
00000010: a693 0fbe 12d4 f7bd 1481 5cbe e25e 7abe
00000020: 668e c23d 8d85 08be 41a8 17be b743 30be
00000030: dbaf 06be 0306 d8bd 1202 b0bd b2a2 15be
00000040: b1dd 71be 0ffc 0ebd 6d6c 37be d323 c1bd
00000050: 96b6 2cbe 2634 95be 8dde 1ebe 4ced 15be
00000060: 0ccf 56be 593d 7dbe e813 49be df46 93be
00000070: 7d46 6ebe ef7f 90be 6c4b 8cbe ac22 79bd
-0.034999736 -0.26456693 -0.25189033 -0.31446686 -0.14021167 -0.12100996 -0.21533614 -0.24450257
0.094998166 -0.13332196 -0.14810278 -0.17213331 -0.13153021 -0.10548022 -0.08594145 -0.14612845
-0.23619725 -0.03490835 -0.17912455 -0.09430661 -0.16866526 -0.2914135 -0.15514584 -0.14641303
-0.2097742 -0.24730434 -0.196365 -0.28765008 -0.23269077 -0.28222606 -0.27401292 -0.06082408

context_transformer_0/ffn_layer_0/norm/mul;context_transformer_0/ffn_layer_0/norm/add;context_transformer_0/ffn_layer_1/intermediate_dense/einsum/Einsum;context_transformer_0/ffn_layer_1/intermediate_dense/Relu;context_transformer_0/ffn_layer_1/intermediate_dense/add f4 [32, 32]
00000000: 6622 363e 5a32 363e 4f8a f1bd 491b 1bbe
00000010: 8cc1 83be d8b1 0bbe 2f73 36be ea62 683d
00000020: c00e 2d3d 91c3 42be 60f1 913e 8792 f6bd
00000030: ce08 f73d 8b7d 3d3c 4b14 90be 5f65 863d
00000040: 0482 f53d 882d 86bc e95f 543a 3c2d eebd
00000050: 1922 5dbe c5ae 2fbe e86d 47be 5cbe 223e
00000060: 667c 0e3e 4a0d 50bc 912a 923e facd 45bd
00000070: 6c75 e1bd 8649 86be 3c2f 8cbe efe2 22bd
00000080: 8ab9 213e 2dac 6d3e 41a4 183d ebc0 023e
00000090: 22d7 cdbd b1ad bdbd bc88 51be 4bf9 c8bd
000000a0: a6d8 c3be 561a ce3e 510e 10be a48b 223e
000000b0: 4781 a3be 491c 403e ded1 323e 87a1 843d
000000c0: 61db 2d3e 9541 013e 8779 2abe e866 78be
000000d0: 93d1 003e d2a3 aa3e 93ae 313e 3895 6bbe
000000e0: 6f0b 8d3e a129 0f3e 5596 c53c 880b d03d
000000f0: e1e1 81bd e81e 043e 400e 9abd 81a9 0a3e
00000100: ec82 5b3d 06a9 123d 06e5 cd3c 475d d3bc
00000110: 0fa6 95bd 4c3e 59be 6b20 943e 84cc cdbb
00000120: f6ba 4bbe abe5 b93d a258 ddbc b679 f5bd
00000130: 83f3 40bd 11bb 94bd 2986 ef3d aa4b d1bd
00000140: caeb 00be feec 203d 0309 be3c 15f1 0bbe
00000150: 736e 053e f3fc df3c f311 34be 5bf0 963d
00000160: 7171 c4be 6ddc 43bd 2e55 7cbd 3a09 683d
00000170: 607c 193e 9d1b 183e 96fe fdbd 84c9 b7bd
00000180: 95f4 cbbc c4f1 f73d f73a c5bd dbd4 163e
00000190: 3f46 a8be ec03 27be dd99 b5bc 98b0 d1bd
000001a0: 2778 d0bd 070d d1bd f943 1fbe 8f81 eebd
000001b0: 87f5 17bd a428 1abe 554d 14bd 3db4 3ebf
000001c0: ec55 063e 4767 82be b31d 0dbe a040 8b3d
000001d0: bc9d 17bd 4cc6 8dbe 54a1 1bbe 8de9 e83d
000001e0: c3f0 5abc 881b 4cbe 9aa1 91be ac9b 223e
000001f0: 3f0a 7cbd edad 68bd 78ae 0cbe 0e3e ef3b
00000200: eb0b 61ba fbac ed3c fecc e7bb 4815 ca3c
00000210: 6686 3bbc fa51 1abd 1512 9e3b c3de 933a
00000220: 18c5 46bd 2190 a23c 3135 d33c a18d 243c
00000230: 9dc3 59bc d1a5 18bc ee35 c5bc 1e18 b2bc
00000240: ae61 03bc 97f3 b8bc 2aec 6bbc 98c2 0d3d
00000250: f320 bb3c b440 9a3c 9b5b 89bc 1e2e 843c
00000260: 7c3c f13c b78f d03b 8144 c2bb 150e 673c
00000270: 3d7f 843c 2160 87bc 6ee1 993c f6c1 c93b
00000280: 8a52 64bc d1b8 103d 0ce9 023c 0b07 f7b9
00000290: 512f b2bc bfcf 13bd 151c fcbb 7359 883c
000002a0: 775e f2bc d949 b53b ef7e d33c 65fa 203c
000002b0: fa5d 58bb d96f c4bc 4343 b63b 184e 973b
000002c0: a153 16ba c28b 42bb 7d80 edbc 2f7c 753b
000002d0: 8e93 7e3b 9e01 95ba 4ae4 f43c f375 ea3c
000002e0: 0308 82bc 3968 563c 3de1 fc3b ca83 ee3c
000002f0: f906 e8bb cc45 133d f4b0 4e3c 1ff1 9cba
00000300: 66ad 06bd dc5a 7b3e 71bd ffbd 8b8f 1b3e
00000310: 2e7f 95bd aeb4 c8bd 713f 903d 75d1 1abd
00000320: eec2 8f3d 314a 013e f18b e53d 5f4e e63d
00000330: 3240 d23d d1b5 afbc b89e 9c3d 26b7 d13b
00000340: bd26 c13c 7aa8 ba3d ba8f 95bd bbac 67bd
00000350: 2354 6ebd 7716 c83d 6bb2 c5bd d7a6 223d
00000360: b3cd e8bb c587 3d3c 261f 07be 3dc7 ab3d
00000370: f5d9 bcbd 05df 573e 8259 b53d 73de d33d
00000380: 0e87 c3bc 9c0d 853e 32c6 80be b135 863e
00000390: b8ab bf3c 2931 a4bd 162c 1abe 7422 d0bc
000003a0: b415 dcbe b70c b23d ba74 613e 333c 103c
000003b0: 5db9 3e3c 2d9c a8bc 6b07 9b3e 541e 82bd
000003c0: 9a68 853d a522 2abd d3ff 713d 0346 d9be
000003d0: 37ea d8bb 338f 07be f82b 96be 1fcd 44be
000003e0: f7d2 873e 060d cfbd 14ce 95bd bc41 35be
000003f0: 2fc7 82be f60b 2e3e 98c2 303e a1e4 febd
0.1778656 0.17792645 -0.117939584 -0.15147127 -0.25733602 -0.13642061 -0.17817377 0.056734957
0.042250395 -0.19019915 0.28504467 -0.120396666 0.12062226 0.011565576 -0.28140482 0.06562304
0.11987689 -0.016379133 0.000810145 -0.116297215 -0.21595038 -0.17156513 -0.1947552 0.15892929
0.13914642 -0.012698481 0.285481 -0.048292138 -0.110087246 -0.2622797 -0.27379787 -0.039767202
0.15793434 0.23210211 0.03726602 0.12768905 -0.10050799 -0.09261645 -0.20462316 -0.09813174
-0.38251227 0.40254468 -0.14067961 0.15873581 -0.31934568 0.1876079 0.1746287 0.064761214
0.16978218 0.12622674 -0.16647922 -0.24258006 0.12579946 0.3332811 0.17351751 -0.23006141
0.27547786 0.13980724 0.024119535 0.101584494 -0.06341911 0.12902415 -0.07522249 0.13541223
0.053591654 0.035805725 0.025133621 -0.025801314 -0.07307064 -0.2121517 0.28930983 -0.0062804837
-0.19895539 0.09077009 -0.027019802 -0.11986105 -0.04710723 -0.072622426 0.11695511 -0.1021951
-0.12589946 0.039288513 0.023197656 -0.13666184 0.13030414 0.027342295 -0.17584972 0.07370063
-0.383678 -0.047817636 -0.06160467 0.056649424 0.14988852 0.14854284 -0.12402074 -0.08973983
-0.0248969 0.1210666 -0.09630387 0.14729635 -0.32866094 -0.1631009 -0.022168094 -0.10238761
-0.10179167 -0.10207563 -0.15553273 -0.11645805 -0.037099387 -0.15054566 -0.036206562 -0.7449377
0.13118714 -0.2546942 -0.1378086 0.067994356 -0.03701566 -0.2769035 -0.1519826 0.11372671
-0.013363066 -0.19932377 -0.28443605 0.15879697 -0.06153321 -0.056806494 -0.1373843 0.0073010987
-0.0008584845 0.029013148 -0.0070739975 0.02466835 -0.011445617 -0.037675835 0.004823933 0.0011281598
-0.048527807 0.019844117 0.0257822 0.010043533 -0.013291267 -0.009316877 -0.024073567 -0.021740016
-0.008018894 -0.02257709 -0.014399568 0.034609407 0.02284286 0.018829681 -0.016767314 0.016135272
0.029447787 0.0063647884 -0.0059285765 0.0141024785 0.016173953 -0.01652533 0.018784251 0.006157155
-0.0139356945 0.035332505 0.007990133 -0.0004711676 -0.021751078 -0.036086794 -0.0076937773 0.016644215
-0.02958606 0.005532485 0.025817363 0.009825324 -0.0033014999 -0.023979114 0.0055622174 0.004617464
-0.00057345076 -0.0029685353 -0.028991932 0.0037458052 0.0038845274 -0.001136828 0.029894013 0.028620696
-0.01587296 0.013086372 0.00771728 0.029115576 -0.0070809093 0.035955235 0.012615431 -0.0011973715
-0.03288021 0.24546379 -0.12487305 0.15191476 -0.07299648 -0.09800087 0.070433505 -0.03779741
0.07019602 0.12625958 0.11208332 0.11245417 0.102661505 -0.021449002 0.07647461 0.006400007
0.023578042 0.091141656 -0.07302804 -0.056561213 -0.058185708 0.0976991 -0.09653171 0.039709892
-0.0071045994 0.0115680145 -0.13195476 0.08387611 -0.092212595 0.21081169 0.08854963 0.10345163
-0.02386811 0.25986946 -0.2515121 0.26212838 0.023397312 -0.08017189 -0.1505588 -0.025407054
-0.42985308 0.086938314 0.22017184 0.008803415 0.011640874 -0.020582283 0.30279097 -0.06353441
0.06514092 -0.041536946 0.059081864 -0.42436227 -0.0066197175 -0.1323822 -0.2933042 -0.19218872
0.2652814 -0.10109906 -0.07314697 -0.17700857 -0.2554259 0.1699675 0.17261732 -0.12445951

context_transformer_0/ffn_layer_2/intermediate_dense/einsum/Einsum;context_transformer_0/ffn_layer_2/intermediate_dense/Relu;context_transformer_0/ffn_layer_2/intermediate_dense/add f4 [32]
00000000: 21eb 31be 96d8 2ebe 4274 2cbe 14a4 4fbe
00000010: 6829 20be 7708 65bd e3d7 bbbd 8484 7cbe
00000020: 31f7 45be c36b abbd 4e6c 43be f95d 02be
00000030: 2fa7 a7bd c769 7bbe a7b2 84bd 9885 39be
00000040: 5694 cbbd 2c41 70be dd06 ebbd dddb 7fbe
00000050: 4b41 a63d 089f adbd 7b11 bebe e82b 19be
00000060: 32b3 65be a93a 3ebe d8b5 b0be f782 41be
00000070: 65b5 3dbe 93b7 36be fbd3 1abe d8ba a7be
-0.17374851 -0.17074808 -0.16841224 -0.20277435 -0.15640795 -0.055916276 -0.091720365 -0.24659926
-0.19332577 -0.08370163 -0.19084284 -0.1273116 -0.081861846 -0.2455207 -0.06479388 -0.18117368
-0.09940402 -0.23462361 -0.114759184 -0.24986215 0.081179224 -0.084775984 -0.37122712 -0.14958155
-0.22431639 -0.18577065 -0.34513736 -0.18897615 -0.18526228 -0.17843466 -0.15119927 -0.32759738

context_transformer_0/ffn_layer_1/norm/mul;context_transformer_0/ffn_layer_1/norm/add;context_transformer_0/ffn_layer_2/intermediate_dense/einsum/Einsum;context_transformer_0/ffn_layer_2/intermediate_dense/Relu;context_transformer_0/ffn_layer_2/intermediate_dense/add f4 [32, 32]
00000000: e4be 4ebd 3edc b43d bc1a 17be f92d dcbd
00000010: b404 ddbd 7001 8abc cb6b 11be 1907 043e
00000020: 392d 01be df77 68be 5a43 443e e514 01bd
00000030: 9983 153d b1a0 31be 772e cf3d f752 64bc
00000040: bb81 acbd e5d8 65be 0c7b 70be c84e dd3d
00000050: 47d0 b5bd 7b5d b33d c52b 2fbe ae6e 41be
00000060: 899f 473e 8293 fabd 71aa ad3d 4a6d 853e
00000070: b3e5 9f3e 8747 ed3d 5527 0c3d 2824 483e
00000080: 66bf 95bb 495a 353d 7e3c 163e 4248 74bd
00000090: 93a2 9dbe dfd2 7ebe 6e5f af3c b5cc 25bc
000000a0: 738d 303e b25b 33be bbc0 afbd 4efd 8ebd
000000b0: b353 443d 55f1 7bbd 8e5d a63d ec24 ac3d
000000c0: 0c5f 01be c2cb 453d 83b2 8e3b 0f53 c43c
000000d0: 0eef d5bd 773b eb3d cce1 81be 1d11 133e
000000e0: a958 683d f4d6 da3d d25d 89bd df02 ce3d
000000f0: 60ce 0cbd 7ab5 11be e1ee 82bd 3fbb 083e
00000100: 2201 363e dd39 a7bd fa76 bcbd 2800 61bc
00000110: 883c 03be 8b9c 58be 771f c4bd b9ec 09be
00000120: 8827 523c e816 143e 8a09 853e 79f6 c53d
00000130: c489 82bd a965 4bbe 3b3e cf3d 5c15 82bb
00000140: a380 153e f094 ed3c 3a76 913e 6395 1ebb
00000150: ba98 073c 0002 16be 6cee 263e 91da d7bc
00000160: 29cc 8c3e bd37 26bb 4e29 1a3e 6c01 41be
00000170: e658 f0bb 972d d8bd eeab 8cbe 106c 2d3e
00000180: 9cb8 11be 9681 373c bb44 a2be 447c d13d
00000190: 47a8 6bbe af6f b3be 5ba0 0abe 7a8a 36bc
000001a0: 2c5d 65be 1880 043d 7ca5 f53d 4c47 243e
000001b0: 9453 e73c c5c1 4e3d f893 003c 693a cabd
000001c0: 9f41 8a3d cab8 f6bc 710a 01bd 527d 4ebe
000001d0: dbca 14bd 6847 efbd c1b8 863d 1f3e 09bc
000001e0: a89c ffbd 5368 f7bd 611c 353e 79b7 7fbd
000001f0: 9bd9 57bd 93df 6bbb 431a 2e3e 8d3a e73c
00000200: 6168 68be 4ab1 42be 65e4 0cbe d04c c6bc
00000210: 58db 41be df06 c5bd 2c87 a9bd feb4 adbc
00000220: fc26 b0be d008 ebbd f5c6 6dbe 1ed0 58be
00000230: 59c2 5ebb a74b c4bd f2b5 d7bc 6f1e 4dbe
00000240: 192f 853d 2300 e4bb 4945 50be 71a7 dcbd
00000250: 727e fdbd 53d1 acbd e835 22be 3813 583e
00000260: 27c8 213e 418a 7f3c 75f5 06be 788f a23e
00000270: d853 a03d 0f51 ecbd b5b4 4c3e 32b8 52be
00000280: 54ed 0f3e 3446 b73e 40ed 553d 457a 5dbe
00000290: e6ab e2be d422 b1be f656 45bd 01de af3c
000002a0: 8d9b 053e ff58 0ebd 7d15 a6bd 894c b13e
000002b0: f785 d13d 7ba6 96be 3ac7 f2bd b634 cebd
000002c0: 25d7 b73d 95cf 473d 3d9a 8cbe 6c3a a63d
000002d0: 70ee 0c3e a10d df3d 2820 f23d c2a4 70bd
000002e0: 298f 85be 7552 cbbd 6ab6 b73d 0920 93bc
000002f0: e732 a3bd 39f1 aabc 636e 20bc 1e12 e43d
00000300: 828c ca3a f11f 35bb 0fd7 14bd 9bf3 bbbc
00000310: 4462 4bbd 19ee 92bd 81de d23c a136 9f3c
00000320: 8a83 c63a 8994 8e3c 5490 fd3c 2250 49bb
00000330: 2aac 0e3c 0ae6 4fbc 8702 c9bb 1999 90bc
00000340: 0673 2abc 2b1c d13c d096 a4bb 8c5d d43b
00000350: 5b34 cc3b f7a3 fb3c 4c35 a33c ee08 45bc
00000360: 848d 92bc b078 803c 3b3c 78bc caf3 a43c
00000370: 632b d3bb 833d c73b eafe 583c 7a29 98ba
00000380: 5838 d4be 7a57 5bba 469c 54be 7cd7 93bd
00000390: a6f7 92bd e9d5 28be 4708 a5be 22c7 2abd
000003a0: 5bea 1e3e bcd9 b83d 98f8 963d 9596 bd3e
000003b0: ee67 61bc 7521 8fbb e77a ab3d 5388 943d
000003c0: aba8 9b3e 98c6 7a3e ece7 943d 0ea3 783d
000003d0: 7e91 a0bd e71a 66be f82e ed3d 3971 353d
000003e0: fc0c 443e 3f27 c6bc d22e 413d c9cb 6abb
000003f0: a8bc fcbc bddd 0a3e 53f2 623e 61e0 8f3c
-0.050475016 0.0883107 -0.14756292 -0.10750956 -0.10791913 -0.016846389 -0.14201276 0.12893333
-0.12614907 -0.22701977 0.19166318 -0.031514067 0.036502454 -0.17346455 0.10116284 -0.013935796
-0.084231816 -0.2244602 -0.23484439 0.10806042 -0.088776164 0.08758064 -0.1710654 -0.18889877
0.19494452 -0.12235166 0.08479775 0.26059943 0.31229934 0.115859084 0.034217197 0.19545043
-0.0045699356 0.044275556 0.14671513 -0.059639223 -0.30788097 -0.24885128 0.02140781 -0.010119607
0.17241459 -0.17515448 -0.08581682 -0.06981908 0.047931384 -0.06150945 0.08123313 0.0840548
-0.12633914 0.04829002 0.0043547763 0.023965387 -0.10445987 0.114859514 -0.25367582 0.14361997
0.056725178 0.1068553 -0.06707348 0.10059141 -0.034376502 -0.14229384 -0.06393219 0.13352679
0.1777387 -0.081653334 -0.092023805 -0.013732947 -0.1281606 -0.21153466 -0.09576314 -0.13469209
0.012826808 0.14461863 0.2598384 0.096661516 -0.06373933 -0.19862999 0.101192914 -0.0039698314
0.14599852 0.029001683 0.28410512 -0.0024197928 0.008276159 -0.146492 0.16301888 -0.026349338
0.27499512 -0.0025362812 0.15054819 -0.18848199 -0.0073348163 -0.105555706 -0.27474922 0.16935754
-0.14230579 0.011200329 -0.31693062 0.1022878 -0.23013411 -0.35046145 -0.13537733 -0.011141414
-0.22398823 0.032348722 0.11994454 0.16042823 0.028238095 0.05047776 0.0078477785 -0.09874422
0.067507975 -0.030117411 -0.0315041 -0.20164993 -0.03632627 -0.116835415 0.06578208 -0.008376627
-0.12481052 -0.12080445 0.17686607 -0.062430833 -0.05269776 -0.0035991415 0.17002206 0.028226161
-0.22696067 -0.19012943 -0.13759 -0.024206549 -0.18931329 -0.09620451 -0.08277735 -0.021204468
-0.34404743 -0.1147629 -0.23220427 -0.2117314 -0.0033990352 -0.09584742 -0.026331875 -0.2003114
0.06503124 -0.006958024 -0.2033893 -0.107741244 -0.12377633 -0.08438363 -0.15840876 0.21101081
0.15799008 0.015596927 -0.13179572 0.31750083 0.07828492 -0.11538898 0.1999081 -0.20578077
0.14055377 0.35795748 0.052228212 -0.21628673 -0.44271773 -0.34596884 -0.048178636 0.021468164
0.13047619 -0.034752842 -0.08109567 0.34628704 0.1023063 -0.2942389 -0.11854406 -0.100686476
0.089765824 0.04878195 -0.27461424 0.08116612 0.13762832 0.108912714 0.118225396 -0.058750875
-0.26085785 -0.09927837 0.089703396 -0.017959611 -0.07968693 -0.020866977 -0.009791943 0.11136268
0.0015453252 -0.0027637447 -0.03633791 -0.022943309 -0.04965426 -0.0717432 0.025740864 0.019435229
0.0015145403 0.017404811 0.03095261 -0.003071793 0.008708039 -0.012689123 -0.0061343345 -0.017651128
-0.0104034 0.025526127 -0.005022861 0.006480878 0.006231827 0.030717833 0.019922875 -0.012026055
-0.017889746 0.015682548 -0.015151079 0.020135779 -0.006444381 0.006080331 0.01324437 -0.0011609041
-0.41449237 -0.0008367222 -0.20762739 -0.07218835 -0.071761414 -0.1648785 -0.32232878 -0.041693814
0.15519087 0.090259045 0.07371634 0.37028947 -0.013757689 -0.004368002 0.08373051 0.07252564
0.3040212 0.2448982 0.07270798 0.060702376 -0.078402504 -0.224712 0.11581224 0.04429743
0.19145578 -0.024188636 0.047163792 -0.0035827032 -0.030851677 0.13561149 0.22162752 0.017563047

context_transformer_0/ffn_layer_3/intermediate_dense/einsum/Einsum;context_transformer_0/ffn_layer_3/intermediate_dense/Relu;context_transformer_0/ffn_layer_3/intermediate_dense/add f4 [32]
00000000: 2b39 12be 6cb1 8dbd 77c6 ccbd 019f 26be
00000010: 814b 73be 0c83 d83c 9181 52be 70d3 cd3c
00000020: 92b4 b1be 423c b1be f4d9 09be 6365 0abe
00000030: ff85 33be 125c a5bd c7d1 3bbe 18b2 83be
00000040: c148 26be 7673 01be 772e 10be 6ead 0ebe
00000050: 9d4b b9bd c3eb 33be 5343 d03b 776f 7fbe
00000060: f9f8 f8bd 3cd1 01be 5472 f5bd 8456 11be
00000070: 5b71 9ebe e02f 03be 1891 15bd e022 2cbe
-0.1427962 -0.06918606 -0.09998792 -0.16271593 -0.23759271 0.026429676 -0.20557238 0.025125235
-0.34708077 -0.34616286 -0.13462049 -0.13515238 -0.17531584 -0.08074202 -0.18341742 -0.25721812
-0.16238691 -0.12641701 -0.14080225 -0.13933346 -0.09047625 -0.17570405 0.006355682 -0.24944864
-0.12156863 -0.12677473 -0.11984697 -0.1419316 -0.30945858 -0.12811232 -0.036515325 -0.16810179
